slr/model/slr_model.tflite (tflite, 7424 bytes, 6 tensors)

sequential/dense/BiasAdd/ReadVariableOp f4 [20]
00000000: 9430 e1bf fb51 fbbd 6a07 00c0 e88a 9a3b
00000010: 7ae3 173f 36f8 513f 4d5c 33bf 025b 8bbf
00000020: 910f 8c3f 8b67 90bf 2f27 90be 8a0a cebf
00000030: f956 1cc0 edd2 07c0 0503 193f 9d36 a5bf
00000040: 775d b3bf 777f 883f 8743 c3bd 7b9f e6bf
-1.759295 -0.12271496 -2.0004525 0.004716266 0.59331477 0.82019365 -0.70062715 -1.0887148
1.094225 -1.1281599 -0.28154895 -1.6096966 -2.4428084 -2.122249 0.5977023 -1.2907292
-1.4012898 1.0663899 -0.09534364 -1.801742

sequential/dense_2/BiasAdd/ReadVariableOp f4 [24]
00000000: e839 153f d4b4 bebf 05c0 06c0 0c18 653e
00000010: cf5b eebe b94b 963e 3787 583f 103e 5ebd
00000020: 6221 d03e 7c59 633e ce77 d73f d69d 073c
00000030: 734d 04be b560 1ac0 943e 83be e8e8 e1bf
00000040: dab4 d63e a014 dabe 09f9 f33f 72c2 7b3f
00000050: ae41 e83f b181 413e 6d01 e1bf b534 963f
0.5829148 -1.4898934 -2.10547 0.22372454 -0.4655442 0.29354647 0.8458132 -0.054258406
0.4065047 0.22202104 1.6833436 0.008277377 -0.1292017 -2.4121525 -0.2563368 -1.7649202
0.41934854 -0.4259386 1.9060374 0.98343575 1.8145044 0.1889713 -1.757856 1.1734835

sequential/dense_1/BiasAdd/ReadVariableOp f4 [10]
00000000: 4f07 a43f 3611 5d3f f222 0bbf be47 c23f
00000010: e809 c93f 81c6 0140 188b ac3f f299 8e3f
00000020: f9ce a8bf cd36 a13f
1.281473 0.86354387 -0.543502 1.5178144 1.5706148 2.0277407 1.3479948 1.114073
-1.3188163 1.2594849

sequential/dense/MatMul f4 [20, 42]
00000000: 5e16 79be 40e3 343d 1827 563e ce83 b73e
00000010: 7690 b43d ec89 fc3d 00d8 0ebe 0472 8c3d
00000020: 591f cbbe 5cc5 8a3c bd18 963e 5e37 f13d
00000030: 5a61 483e 2f3f b73d c326 1c3e 9c1d b73d
00000040: ade7 ca3d 30c7 ba3d 7b37 07bd 0a2f c63d
00000050: af33 ecbd e5ca 213d d9a6 d2be 199b 263d
00000060: 3803 78bf f01f 26c0 5943 83bf 7abb 9e3d
00000070: 1a84 ba3c 1c7c 293c c88c 8e3e b1b5 35bb
00000080: d0d2 293e f1d6 1cbe d75b afbe 168a 813d
00000090: 8bcd 163d 437f 533c 763c 8e3e 771b 93bd
000000a0: 6745 8c3e fe28 f2bd e818 193e db80 16be
000000b0: 79db 93be 179c b5bb 19a4 3fbe 3804 3ebc
000000c0: e9d9 28bd 2b96 c7bc 7def dd3d 353a cdbb
000000d0: 7970 a9be 0d29 8e3c 65a6 fdbe 37af af3c
000000e0: 849b 12bf 0728 593d 4279 22bf 3596 963d
000000f0: ecb3 cabe 32ec 98bb 6e38 94bf bb81 b43c
00000100: 9648 cbbf 86c4 ee3d ac4a eabf 8b3b 1a3e
00000110: de83 813f fd2a f03c 1087 0cc0 44e1 373d
00000120: 81e0 95c0 8337 113e 0c57 89c0 d5de 653e
00000130: 8d9b 903e e38f 063d e775 a8be 5383 223d
00000140: 360a c6be 27fd 6a3d 21cf e0be 276e 953d
00000150: 722c 6dbe 5c58 39be 72e8 e8bd 94e3 56c0
00000160: 9d30 003e 4ba3 c4bf 8bf2 693e 6b4c b5bf
00000170: e34d 583e 887c 5cbe 5df2 393e 93c8 81be
00000180: 257a 95bc 4318 17be 43ff d8bd 71fe 2ebd
00000190: ff01 0cbe 9e8f 7cbd d6fa 093f de18 33be
000001a0: b89b 94bd b534 48bd 3a64 9abd 7cbc 793d
000001b0: 3e62 323d 371c 2b3d 7810 673f 3843 0fbe
000001c0: aec5 babd 4992 41bd 9156 cdbe c41b 2a3d
000001d0: 6f54 cfbe 8dd2 d83c 1a7c 2a3f 1d55 09be
000001e0: d730 bfbd 5f12 79bd d324 73be 4edc 083d
000001f0: 51e5 4fbe 5445 b43d 0c91 383e b2eb 8fbe
00000200: 73a6 3abe a62b bdbe 6b8b 3f3d 3a69 3cbe
00000210: 99bc 013e 76b2 9abd 668b 753e 64b5 35bd
00000220: 79ee 983c 5bfe 31bd 1af2 b4bd d261 cabc
00000230: 9a55 87bd df34 74bc 3240 89bd 259f 1a3d
00000240: f378 e13e a0b5 53bd 1e13 23bf 5ba4 7bbd
00000250: eb73 ccbe e6d9 e5bd e25f 90be 3a41 12be
00000260: b486 3c3f aac6 48bd ad7f abbf f2c4 f33c
00000270: 0198 8dc0 d1c5 a43d 9341 ecc0 23e7 5e3e
00000280: bfdb 573e f52c fcbc c4b0 d8be 0b40 4e3c
00000290: 7633 41bf 3dfe 253c 6bc0 89bf 4d63 dc3c
000002a0: 206a 713c 3578 61be 993d 61bf cd33 0340
000002b0: 7656 5ebf 880f fb3f 45d8 86be 1efa f43f
000002c0: dfee aa3e fb61 f33f 20ad c63d e7ad 573f
000002d0: 5d7c 113e 3a99 8e3f 962c 803e 8ce5 b33f
000002e0: 117a 9e3e dbe2 663f a5eb 423e 6f53 423f
000002f0: d0c8 11be e267 1e3f dfb4 a5be 58b2 a0be
00000300: bbfe 06bf c0a0 69bf 1041 f93e 663f f43e
00000310: 4de1 613e 10e9 163f 2f6e 0c3f 5b38 633e
00000320: 8a4d aa3e 6873 1abe a0b0 313f c9f6 cd3e
00000330: 20ec f23e 8786 643f 58ce cd3e f9ee 743f
00000340: 730f 283f 46b0 473f d75c 83be ae09 8fbd
00000350: ab80 563f 1fea 6b3f 261c ad3e b5da ce3e
00000360: e86e 413f a4e5 ab3e 3614 893f ca34 693e
00000370: 5c5c 13bd c4fe 903d 54c0 f0be 16a7 ae3c
00000380: 8646 dabe b70e 82bc 6e77 f2be eac1 963d
00000390: cdc4 623d f867 633d 3c03 e03f 3ef4 503d
000003a0: 72fd 4b40 91e4 6cbd dc25 3c40 fd80 98bd
000003b0: 0585 8bbe e541 6c3d e4f4 b23e 8523 e73d
000003c0: 51e0 4b3f 8c70 97bd 9550 843f 19a8 0dbe
000003d0: bd68 e9be b6f3 ec3d 31f2 98be 1e2f d23d
000003e0: 41e3 20bf 3914 433e e7f5 43bf 07ca 673e
000003f0: 58cd 0d3e e664 79be 50a4 1b3e 53ab 7abf
-0.24324939 0.044162035 0.2091335 0.35842746 0.08816616 0.12330994 -0.13949585 0.06857684
-0.39672354 0.016939811 0.2931575 0.117781386 0.19568387 0.08947598 0.15249161 0.089411944
0.0990747 0.09120023 -0.033011895 0.09676941 -0.11533295 0.039500136 -0.4114292 0.040675256
-0.9687991 -2.5956993 -1.0254928 0.07750602 0.022768069 0.010344531 0.27841783 -0.0027726705
0.16584325 -0.15316369 -0.34249756 0.06325166 0.036817115 0.0129087595 0.27780503 -0.07182973
0.273967 -0.11824225 0.14950907 -0.14697592 -0.28878382 -0.005542289 -0.18714942 -0.0115976855
-0.04122344 -0.024363598 0.108366944 -0.0062630423 -0.33093622 0.017353559 -0.4954101 0.021445854
-0.5726855 0.05301669 -0.63466275 0.073528685 -0.39590394 -0.0046668286 -1.1579721 0.022034517
-1.5881526 0.116585776 -1.8304038 0.15061776 1.0118368 0.029317373 -2.1957436 0.044892564
-4.6836553 0.14181332 -4.291876 0.22448285 0.28243676 0.032852065 -0.32902452 0.03967602
-0.38679665 0.05737033 -0.43908027 0.072964005 -0.23161486 -0.18100113 -0.113724604 -3.3576403
0.12518544 -1.5362333 0.22846429 -1.4163946 0.21123461 -0.2153188 0.1815886 -0.25348338
-0.01824672 -0.14755349 -0.10595562 -0.042723123 -0.13672636 -0.0616604 0.5389837 -0.17489955
-0.072562635 -0.04887839 -0.07538648 0.06097077 0.043550722 0.041774955 0.90259504 -0.13990486
-0.09119736 -0.04725865 -0.40105107 0.041530386 -0.40494105 0.026467586 0.66595614 -0.13411374
-0.09335487 -0.060808536 -0.23744516 0.033413224 -0.20302321 0.08802286 0.18024081 -0.2810951
-0.18227558 -0.36947364 0.04676382 -0.18399516 0.126696 -0.0755357 0.23978958 -0.04436244
0.0186684 -0.043455463 -0.0883524 -0.024704847 -0.06608124 -0.014905184 -0.067016974 0.03774943
0.4403759 -0.051686883 -0.63701046 -0.06143604 -0.39932188 -0.112232015 -0.28198153 -0.14282694
0.7364304 -0.049017586 -1.3398339 0.029756997 -4.424805 0.08045543 -7.3830047 0.21767859
0.2107992 -0.030783156 -0.4232236 0.012588511 -0.7546915 0.010131416 -1.0761846 0.026902819
0.014734775 -0.22018512 -0.87984616 2.0500367 -0.8685068 1.9614115 -0.26336876 1.913883
0.3338537 1.9014276 0.0970099 0.8424973 0.14207597 1.1140511 0.25034016 1.4054427
0.30952504 0.90189904 0.19035204 0.7590856 -0.1423676 0.6187726 -0.32364556 -0.31386065
-0.5273244 -0.9126091 0.4868245 0.4770462 0.22058602 0.58949375 0.54855627 0.22189467
0.33262283 -0.15083086 0.69410133 0.40227345 0.47445774 0.8926777 0.4019649 0.95677143
0.65648574 0.78003347 -0.2565677 -0.06984268 0.8379008 0.92154115 0.33810538 0.40401235
0.75559855 0.3357364 1.0709293 0.22774044 -0.035976753 0.07079843 -0.47021735 0.021319907
-0.4263193 -0.015876157 -0.47356743 0.07361205 0.055363465 0.055519074 1.7500987 0.051014178
3.187344 -0.057835165 2.9398108 -0.074464776 -0.27249923 0.05768003 0.34952462 0.11286072
0.79639155 -0.073945135 1.0337092 -0.13833655 -0.4558772 0.11569922 -0.29872277 0.10262893
-0.6284676 0.19050683 -0.7654709 0.22635661 0.13847864 -0.24354896 0.15199399 -0.9791767

sequential/dense_1/MatMul f4 [10, 20]
00000000: 266c 573f 518c 46be ff11 3e3f 2c29 38bd
00000010: 8444 36c0 5bc6 b03e 606d bf3e f50e 8e3e
00000020: cec7 383f d84f db3e fdab debc 6d26 7fbc
00000030: 81ea de3e e434 983f d404 24c0 d931 c0be
00000040: 7977 073f e259 70be 57cf 3fbe dc46 eabe
00000050: a70f ab3f d9a2 41bf bcae 353f 3843 b03c
00000060: ee7d 01bf b93f fe3e 619f 1e3f 4bc9 da3f
00000070: f26a b63f 0e7d 0d3f c09f 0340 e88d ba3f
00000080: 4fbb 133e 2c5a 21be eb4f c4be ee8a b83f
00000090: e804 ab3e 1447 f2be 3d84 c5bc c495 513f
000000a0: 8a7b 1b3f 235e 6c3f c812 c63f 9785 313f
000000b0: 7901 97bf 697a 4d3d 99b8 1a3f 6024 833f
000000c0: e51b 343e fcbe 8f3f 1b04 ebbe 9cef 1640
000000d0: 6bde 993f aa63 ac3f ad50 31bf 7013 2340
000000e0: a3f6 5340 53c6 81be 76f7 253f b738 2e3e
000000f0: 69ee 0e40 422e a73d c618 33be 04d6 413e
00000100: 56f2 0c3e 0e9c 573f f039 373f 85f9 5ebf
00000110: 5857 5f3f d827 9c3e 8ddf 813f 0422 8f3f
00000120: 78e3 c43e ef4f 973f 6fa1 583e 0fc7 c83f
00000130: ab68 7ebe f117 d0c0 b1d3 2f3e 5b47 5540
00000140: f80b 403f c138 fcbc 04aa 583d 975a 513d
00000150: ed96 44bf 478a 87be c791 3abd 8af6 433f
00000160: 9262 853d 77da ff3e dafb 3abe 1d60 be3f
00000170: 8399 ad3f 0e79 b83f 03bb 7dbf 9ccb 8e3f
00000180: c03b c9be 62eb 44be 68f6 0c3d eec0 ccbe
00000190: 3308 7fbf e923 85bd 24cf e33f a919 c73d
000001a0: ee41 cebe 308b d53e d51e 823f 3005 b13f
000001b0: 58d6 ac3e b22d ab3f cb86 873f b1ac 65bd
000001c0: 045c f53e bbfc 313f ff46 483e 7055 a53e
000001d0: 553f 8240 7fa3 bebe 449a c63d 15f5 e63d
000001e0: 4c59 0a40 cec5 56be 6237 b9bd cc8b 2e3d
000001f0: 7d61 5e3e 8902 4d3f ecff 063f 0a5b 763f
00000200: 6447 533e 49b7 b33f 78d1 abbe f60b 293f
00000210: a694 50be da1e 2fbd 302b a0be f3d9 c5be
00000220: 7c5f 7b3e 3046 943f 3300 8c3d b511 53be
00000230: 0a15 2abf a5a1 ad3f f00f e3bd 33b2 a13f
00000240: 9519 8c3f ff7a 6e3f 19ca 853f 2762 373e
00000250: a50b 8b3f 306f 5f3f 6654 413f c402 9a3e
00000260: 312b 1a3e 5cb4 3b3d f96c 093f 5e87 ac3f
00000270: d02a c6be 7dd0 6c3f b92a 9c3f 4e44 b1bf
00000280: 83ec f93d d03f ec3c e963 11be dd27 2c3d
00000290: eb97 21c0 b1d1 173f 14c3 9abe 12d6 cabd
000002a0: 5317 893d 572b 1240 48d1 593f 3819 14be
000002b0: 00ac 0abe 8d3c b0bd f4ac 443f cdf6 1f40
000002c0: 1515 38be 4cd7 03be 9f30 633d 2b52 953d
000002d0: e56c 8e3f f54a db3f ad00 953f 35c6 e23f
000002e0: 4fc1 b4bf 0a2b 15c0 61a2 d6bf 7456 05bf
000002f0: ea11 f43d 0639 f4bd 4083 b23f ee20 7c3e
00000300: 199b 783f f97c a23f 9bc2 80bf fd65 0abe
00000310: a047 c43f 736a 373f c496 de3f c222 9b3f
0.84149396 -0.19389464 0.7424621 -0.04496114 -2.8479319 0.34526333 0.37388134 0.27745786
0.7217988 0.42834353 -0.02718162 -0.015573126 0.43538287 1.1891141 -2.5627947 -0.3753803
0.52916676 -0.23471788 -0.18731438 -0.45757186 1.3364152 -0.7563911 0.7096975 0.021516427
-0.5058278 0.49657992 0.6196194 1.709268 1.4251387 0.55268943 2.0566254 1.4574556
0.14426921 -0.15757054 -0.38342223 1.4417398 0.3340218 -0.47319853 -0.024110908 0.8186915
0.6073538 0.9233114 1.5474482 0.69344467 -1.1797324 0.050165568 0.60437924 1.0245476
0.17588766 1.1230159 -0.4590157 2.3583746 1.2021002 1.3467915 -0.69263726 2.5480614
3.3119285 -0.25346622 0.6483072 0.17013822 2.2333014 0.0816312 -0.17489919 0.18929297
0.13764319 0.84222496 0.7157278 -0.87099487 0.8724265 0.30499148 1.0146347 1.1182256
0.38454795 1.1821269 0.21155332 1.5685748 -0.24844615 -6.5029225 0.17170598 3.3324802
0.7501826 -0.030788781 0.052896515 0.051111784 -0.76792794 -0.26472685 -0.04554918 0.76548064
0.065129414 0.49971363 -0.18260136 1.4873081 1.3562473 1.4411943 -0.9911348 1.1155887
-0.39303398 -0.19230416 0.03441468 -0.39990944 -0.99621886 -0.0650099 1.7797589 0.09721691
-0.40284675 0.41707754 1.0165659 1.3829708 0.3375728 1.337332 1.058801 -0.056072894
0.47921765 0.6952626 0.19558333 0.32291746 4.070231 -0.37234113 0.096973926 0.112772144
2.1617002 -0.20973894 -0.090437666 0.04261379 0.21716876 0.80081993 0.52734256 0.96232665
0.20632702 1.4040309 -0.3355825 0.66033876 -0.20369205 -0.04275403 -0.3128295 -0.38642845
0.24548143 1.158392 0.068359755 -0.20612223 -0.66438353 1.3564955 -0.11087024 1.2632507
1.0945307 0.9315643 1.04523 0.17908536 1.0862929 0.87279034 0.75519407 0.30080235
0.15055539 0.0458263 0.53681904 1.3478811 -0.38704538 0.9250563 1.2200538 -1.384897
0.12203314 0.028839022 -0.14198269 0.042030204 -2.5248973 0.5930434 -0.30226958 -0.09904112
0.06693902 2.2838953 0.8508496 -0.14462745 -0.13542175 -0.08605299 0.76826406 2.4994385
-0.17976792 -0.12875098 0.05546629 0.07291063 1.1126982 1.713225 1.1640831 1.7716738
-1.4121493 -2.330752 -1.6768304 -0.5208504 0.11917479 -0.11924939 1.3946304 0.24621937
0.9711166 1.2694389 -1.0059389 -0.13515468 1.5334358 0.71646804 1.738976 1.2119982

sequential/dense_2/MatMul f4 [24, 10]
00000000: caa0 7e3d 958a 8fbf c64a a23e db56 58bf
00000010: cf8c 523e ad9d b03e 3d4c d03e 2073 2ebf
00000020: 57de 303d acc2 da3d ba71 383e 9034 033e
00000030: e4de 833d 8ef5 f03e 1b94 43be c9cc 4abf
00000040: 3277 98be 4a18 66bd be91 433e 357b 5a3e
00000050: e951 c7be 674d 3fbe 7917 e63e 2aeb 833e
00000060: 8297 0ebe 8b9a 83bf cbdc adbe 2d22 17bf
00000070: 7b59 a93e 2d75 313f 98d2 b2be 8039 1dbe
00000080: f9ed 24bf 5c9f 313f f8db 453e 683d 353f
00000090: 7923 00bf 9d49 afbe e363 48bf 1f43 04bf
000000a0: f89c 3b3f 377d b33d 73e2 ca3e 3109 acbe
000000b0: de30 7a3e 3a14 c93e 458d 29bf 768b 94be
000000c0: b273 a9be 5614 a6bf 54ef 21bd 8077 8cbf
000000d0: 42b2 c93e 8408 6d3c 7812 1a3f 1682 acbf
000000e0: 1caa 263f 6e8f 26be f9e7 4b3f 6947 13be
000000f0: 4a6c 8b3e 99ad 333d a7a0 c4be 24f1 ddbe
00000100: 6639 dfbf 1fca 97bf 6a4e 743e 45d7 003f
00000110: 2375 debf 87a7 e43e 4aa1 45bf 7346 ad3e
00000120: e660 a53d d879 8cbf 46b0 7a3e fca1 b9bf
00000130: 2229 b63e 4b95 ae3e c570 083f cb4a bb3e
00000140: 5d96 623e 95c0 41bf d03f e83e 2a5c ecbd
00000150: 423a cabc 0393 9ebe 992c bcbe c361 f73e
00000160: a00f 33bf 62e5 61be 52c0 fd3e 6cd2 303f
00000170: 4165 26bf b94b 413e b65c 3bc0 f50e 7d3f
00000180: a0ec 043f 25ba 5bbf b48a 34be b147 84bf
00000190: e85f 57bf 9dad debf e725 93bf 2ebd 543f
000001a0: 77e1 1f3f 603a bebe 7beb 9bbf 9bbd d5bc
000001b0: 29ea 95c0 a2b2 1e3f beaa b5be f9c6 813e
000001c0: 1feb 553f 4ba8 16bf 7580 9ebe 7ec3 d63e
000001d0: 0663 17bf 1beb 733e e705 51bf f381 85bf
000001e0: 1873 7f3d 7432 03bf 8dfe d43e 2f6a 91bf
000001f0: 8990 0bbe a85f 083f eb45 36bc 6568 503f
00000200: cc69 41c0 82bd febe 222c c6be 3554 a2be
00000210: 79a2 4e3f 9730 96bd 7ea3 e0be 1476 f1be
00000220: 2d59 7d3e 76dc 62bf d46b 1c3f d8bd 313f
00000230: 9acc 9dbf 3899 813f d3d3 3fbf e3df 19bf
00000240: b8b2 07c0 ed81 503e 57d3 323f d415 413f
00000250: a018 d83c 4a3c 53bf 7626 7c3d 25a8 7c3e
00000260: 5ba9 a0bf 7383 08be 2a5f 14bf 6fb5 78bf
00000270: 6a65 3e3f 9554 653f 44b8 0f3f 6355 21bf
00000280: 010d 26be e79c b53f 893a 16c0 d2dc 973d
00000290: 1b9d da3e 2635 253e 37b0 e53e c076 a6bf
000002a0: 2a19 05c0 7d97 85bf 7c28 033f 4b74 e6be
000002b0: 7632 8a3e f76a dfbe cf95 033e 4859 353f
000002c0: 4d86 08be d442 0abf 0618 afbe 5cbe 50bf
000002d0: a0a9 aabe 0ea8 d2bd bed3 19bf 38b5 d5bf
000002e0: 8854 15c0 2c62 6b3f da09 7ebf 6df7 173f
000002f0: 421b a0bf 0234 f33e d0b9 173f f12a 3b3e
00000300: 3383 ddbf fc37 993e 7ad7 92be 84bd 83bf
00000310: 4227 aebe 6161 7cbd a847 c7c0 f1f6 4f3f
00000320: 896d 833e d624 ea3d 549f 83c0 b063 bb3f
00000330: 3cc7 eebe 06c9 3dbf d42f 133f 1eec a6be
00000340: 0af1 89c0 d707 01c0 3147 34bf 4739 383f
00000350: fea9 4bbf 346c 663f fde7 9d3e 2a42 debe
00000360: 06bd c33e e2a9 0fbf 4765 7c3e 158f 02c0
00000370: 086d 84bf b81f 3fbd f30f bf3e cdd9 453e
00000380: 480a 1fbf 6d60 a93e 9b07 98bf 4862 f5bd
00000390: d5ab 08bf b8e4 c23e 1990 d73e b393 9bbf
000003a0: 16bd c9bd 779e 7bbf d691 3c3f a166 363f
000003b0: 88c1 e4be b373 01c0 e74c b63f 6c53 72be
0.06216506 -1.1214167 0.31697673 -0.8450753 0.20561527 0.34495297 0.40683165 -0.68144417
0.04318079 0.10681662 0.18012133 0.1281302 0.064389974 0.47062343 -0.19099467 -0.7921873
-0.2977844 -0.056175508 0.19098565 0.21336062 -0.3892968 -0.1868187 0.44939783 0.25765353
-0.13924983 -1.0281538 -0.33957514 -0.59036523 0.3307608 0.6931942 -0.34926295 -0.15353966
-0.6442562 0.6938379 0.19322193 0.70796824 -0.50054127 -0.3423585 -0.78277415 -0.5166492
0.7328639 0.08764117 0.39625892 -0.33600762 0.24432704 0.39273244 -0.66231185 -0.2901265
-0.3309608 -1.2974956 -0.03953488 -1.0973969 0.39393812 0.014467362 0.6018443 -1.3477199
0.65103316 -0.16265652 0.7965084 -0.1438271 0.27231055 0.043866728 -0.38403818 -0.43348038
-1.7439392 -1.1858557 0.23858038 0.50328475 -1.7379497 0.44659063 -0.7719923 0.3384281
0.080751225 -1.0974684 0.24481305 -1.4502559 0.35578257 0.34098276 0.5329707 0.365805
0.22127672 -0.7568448 0.45361185 -0.115410164 -0.024685983 -0.30971536 -0.36752775 0.48316774
-0.69945717 -0.22060159 0.4956079 0.6907108 -0.6499825 0.18876542 -2.9275336 0.9885095
0.5192356 -0.8583091 -0.17631036 -1.0334378 -0.84130716 -1.7396733 -1.1495942 0.83101165
0.6245341 -0.37153912 -1.2181238 -0.026091387 -4.684834 0.6199132 -0.35481828 0.25347117
0.8356189 -0.58850545 -0.3095738 0.41946024 -0.5913547 0.23820154 -0.8164963 -1.0430282
0.06236562 -0.5124886 0.41600457 -1.136053 -0.13629355 0.5327096 -0.011125068 0.81409293
-3.0220823 -0.49753958 -0.38705546 -0.3170487 0.80716664 -0.073334865 -0.43874735 -0.471604
0.24741049 -0.88617647 0.6110203 0.69430304 -1.2328064 1.0124884 -0.74932593 -0.6010725
-2.1202831 0.20362063 0.6985373 0.7542393 0.02637893 -0.8251387 0.061560117 0.24673517
-1.2551683 -0.13331394 -0.5795771 -0.97151846 0.74373496 0.89582187 0.5614054 -0.63020915
-0.16215898 1.4188508 -2.3473227 0.07415165 0.42697987 0.16133556 0.44861004 -1.300499
-2.079661 -1.0436856 0.5123365 -0.450106 0.26991624 -0.43636295 0.12850116 0.7083936
-0.13332482 -0.5400822 -0.34198016 -0.81540465 -0.3333254 -0.1028596 -0.6008872 -1.6695929
-2.3332844 0.91946673 -0.9923378 0.59361917 -1.2508318 0.47500616 0.592679 0.182781
-1.7305664 0.29925525 -0.2868002 -1.029221 -0.34014326 -0.061616305 -6.227497 0.8123618
0.25669506 0.11432807 -4.113199 1.4639797 -0.4663638 -0.7413486 0.57494855 -0.32602018
-4.3106737 -2.0161035 -0.7042113 0.719624 -0.7955626 0.90008855 0.30841056 -0.43409854
0.3823015 -0.56118596 0.24648009 -2.039983 -1.0345774 -0.04666111 0.37316856 0.19321366
-0.6212506 0.3308138 -1.1877321 -0.11981636 -0.53387195 0.38065124 0.42102125 -1.2154449
-0.098505184 -0.98288673 0.7366003 0.7125035 -0.44678903 -2.0226867 1.4242219 -0.23664635
